results/20250812-164207/best.pt (torch, 273329 bytes, 6 tensors)

fc1.weight f4 [256, 4]
-0.45258763 0.055478003 -0.45141646 -0.49410886 -0.19257718 0.13407868 -0.00990659 0.39644474
-0.27263615 0.25983095 -0.44413173 -0.8337735 -0.5507415 -0.43124706 -0.18112405 0.085833095
0.16719626 -0.073744774 -0.52862436 -0.6658036 0.098719664 0.3953348 -0.10292029 0.4273246
-0.067421906 0.016066313 0.42015472 -0.37990648 -0.38000977 -0.20151009 -0.19441295 0.3616127
0.16132492 -0.09376955 -0.4241832 -0.94081146 -0.13898689 0.13217899 0.35622942 0.78834057
-0.26088798 -0.4471952 -0.023707919 -0.6671649 0.104105115 -0.26811975 0.32999223 0.44854075
0.013620827 0.0121293655 0.54613936 0.9367958 0.2094132 -0.42538163 0.3597437 0.40314785
0.2032505 -0.12346232 -0.514438 -0.83757395 0.19831465 0.22184336 -0.30310953 0.15724932
0.274486 -0.06310868 0.019090772 0.115852356 0.19187464 0.41248217 -0.38539886 -0.19750783
-0.060539234 0.12499605 0.5181427 0.98863655 0.13112023 -0.40317786 0.07759371 -0.3426317
-0.52634454 0.32441825 0.32710117 -0.46011987 0.055340856 -0.07421087 -0.06948898 -0.31542477
0.19821735 -0.31149355 0.1667225 0.29424855 0.59245443 0.5482682 -0.24498962 -0.5446886
0.092825286 0.055368662 -0.59705365 -0.882068 0.5289332 0.42237666 -0.20410025 -0.12531634
-0.23294932 0.18679295 -0.42665893 -0.8654824 0.011591249 0.08303299 -0.19700854 0.27378932
-0.39833623 0.292289 0.34223017 -0.26961684 -0.09953253 0.036527105 0.06135705 0.1346246
0.19621414 0.029950082 -0.24396437 0.2365945 0.1583118 -0.08003722 -0.3754462 -0.8227759
-0.31897268 -0.4436561 -0.1968022 0.012635087 -0.23975581 0.068486005 0.25603744 -0.10264611
0.017029684 -0.06427701 0.04959452 0.34896734 0.56731224 0.21443006 0.49412706 0.104958974
0.18340473 -0.40859866 0.39781585 0.5206808 -0.3539081 -0.47077033 -0.32216766 -0.3494386
-0.18398547 0.15359183 0.2468489 -0.38085026 0.31723619 -0.37852183 -0.10773037 -0.1992074
0.20094655 -0.12899187 -0.54172975 -0.92268586 -0.07823974 0.0064660907 -0.22713745 0.1883496
0.21696888 -0.5786131 0.32433015 0.2580859 0.6512 0.34106898 -0.5016806 -0.017733
0.012171647 -0.15768614 0.31095064 -0.4055143 0.06972365 -0.11209104 0.33622208 0.20063384
0.31097564 0.41046947 -0.057485145 -0.09238444 -0.05755192 0.13097401 0.4565415 1.0469502
-0.34493852 0.09212181 -0.17648207 -0.3045426 -0.3492112 0.39830616 -0.3876286 -0.59278893
-0.04558832 0.31701294 -0.35477388 -0.46907815 -0.29033077 0.3499667 -0.1797325 0.42174435
0.18080378 0.06331301 -0.003722012 -0.09884077 0.06273317 -0.11417234 -0.003513217 0.06379652
-0.31264946 -0.25456983 0.4047214 -0.29490423 -0.3597302 0.40498847 0.16208185 0.029939879
-0.4061386 0.36820683 -0.4078379 -0.28255725 -0.16775817 -0.07404369 0.0054691434 0.41240376
-0.0357096 0.31538308 0.30026397 -0.24239396 -0.18965486 -0.2778271 -0.072870515 -0.4409667
0.034750957 0.30847114 -0.22183427 0.0059861676 0.27868292 -0.4675321 0.33521265 -0.4115046
0.08686025 -0.070652224 -0.28420168 0.102281824 0.15899639 -0.14215116 -0.26765692 -0.7352882
00000000: 91b9 e7be e73c 633d 0f20 e7be d6fb fcbe
00000010: f432 45be ec4b 093e 404f 22bc cefa ca3e
00000020: f796 8bbe 9008 853e 3c65 e3be 2e72 55bf
00000030: 65fd 0cbf 6acc dcbe 9578 39be 43c9 af3d
00000040: 7f35 2b3e 8007 97bd ed53 07bf 1b72 2abf
00000050: 892d ca3d 5369 ca3e dfc7 d2bd 4aca da3e
00000060: 7f14 8abd 809d 833c 851e d73e 1a83 c2be
00000070: a490 c2be a958 4ebe 3014 47be 4d25 b93e
00000080: 5c32 253e 400a c0bd 8a2e d9be 05d9 70bf
00000090: 9452 0ebe ee59 073e b463 b63e b0d0 493f
000000a0: 1c93 85be c5f6 e4be 1c37 c2bc 52cb 2abf
000000b0: 1035 d53d fe46 89be bef4 a83e 22a7 e53e
000000c0: e429 5f3c 3fba 463c cacf 0b3f d9d1 6f3f
000000d0: 6a70 563e 9fcb d9be 5430 b83e 6569 ce3e
000000e0: e620 503e d0d9 fcbd 35b2 03bf 3f6b 56bf
000000f0: ff12 4b3e e82a 633e 2c31 9bbe f705 213e
00000100: 6e89 8c3e 203f 81bd 4064 9c3c 0044 ed3d
00000110: c97a 443e dd30 d33e 0053 c5be 7e3f 4abe
00000120: fdf7 77bd eefd ff3d 00a5 043f 4917 7d3f
00000130: 6244 063e 546d cebe 73e9 9e3d 6c6d afbe
00000140: 84be 06bf 261a a63e ce79 a73e d594 ebbe
00000150: 18ad 623d defb 97bd 3d50 8ebd 5b7f a1be
00000160: 7df9 4a3e 157c 9fbe 4eb9 2a3e bfa7 963e
00000170: 18ab 173f 4e5b 0c3f 8fde 7abe b670 0bbf
00000180: 2f1b be3d 40ca 623d 82d8 18bf 35cf 61bf
00000190: 2b68 073f c141 d83e a8ff 50be ed52 00be
000001a0: 448a 6ebe a746 3f3e 0a73 dabe 4190 5dbf
000001b0: 39e9 3d3c 330d aa3d 9bbc 49be 1d2e 8c3e
000001c0: baf2 cbbe e7a6 953e cb38 af3e 380b 8abe
000001d0: b6d7 cbbd 729d 153d 8851 7b3d 08db 093e
000001e0: 5cec 483e e059 f53c ccd1 79be d445 723e
000001f0: 7d1c 223e 8eea a3bd 7c3a c0be 71a1 52bf
00000200: 6350 a3be e426 e3be 8486 49be 6503 4f3c
00000210: 8c82 75be 6442 8c3d 5717 833e 2038 d2bd
00000220: d681 8b3c aaa3 83bd a023 4b3d d9ab b23e
00000230: 603b 113f 8e93 5b3e 39fe fc3e bbf4 d63d
00000240: 73ce 3b3e d833 d1be 85ae cb3e 564b 053f
00000250: 7133 b5be cf08 f1be 29f3 a4be 9ee9 b2be
00000260: b066 3cbe 2d47 1d3e f5c5 7c3e cefe c2be
00000270: c86c a23e 9dcd c1be bda1 dcbd 06fd 4bbe
00000280: efc4 4d3e 7216 04be cdae 0abf 2435 6cbf
00000290: 283c a0bd 80e1 d33b b896 68be b8de 403e
000002a0: 172d 5e3e fd1f 14bf 9a0e a63e d623 843e
000002b0: 0bb5 263f 98a0 ae3e 246e 00bf cc44 91bc
000002c0: 966b 473c 7a78 21be ec34 9f3e 929f cfbe
000002d0: 46cb 8e3d fd8f e5bd 4d25 ac3e f572 4d3e
000002e0: 3338 9f3e 0e29 d23e 8b75 6bbd 0e34 bdbd
000002f0: 90bb 6bbd 0d1e 063e cfbf e93e 7702 863f
00000300: c89b b0be 5caa bc3d b7b7 34be 02ed 9bbe
00000310: cfcb b2be c9ee cb3e 4177 c6be 04c1 17bf
00000320: d1ba 3abd 854f a23e eca4 b5be 032b f0be
00000330: 3ca6 94be d62e b33e cc0b 38be e0ee d73e
00000340: a024 393e 40aa 813d 00ed 73bb 086d cabd
00000350: 407a 803d 30d3 e9bd 003e 66bb c0a7 823d
00000360: 9713 a0be fa56 82be a537 cf3e b0fd 96be
00000370: 8f2e b8be a65a cf3e c9f8 253e 7a44 f53c
00000380: 66f1 cfbe 9b85 bc3e 21d0 d0be 58ab 90be
00000390: ccc8 2bbe 38a4 97bd 8036 b33b 9626 d33e
000003a0: 3b44 12bd e479 a13e 33bc 993e 1f36 78be
000003b0: e234 42be 5b3f 8ebe 233d 95bd 63c6 e1be
000003c0: 0557 0e3d eeef 9d3e 8628 63be 9d27 c43b
000003d0: 87af 8e3e 5e60 efbe fea0 ab3e bbb0 d2be
000003e0: c9e3 b13d 1db2 90bd e282 91be 2279 d13d
000003f0: f3cf 223e 1390 11be 540a 89be d93b 3cbf

fc1.bias f4 [256]
0.123081915 -0.47224933 -0.6124706 0.24564636 -0.4890417 0.42056617 0.44020933 0.12961593
-0.45389423 -0.35407242 -0.097080246 -0.09145733 -0.52445877 -0.47086647 -0.59079427 0.3741058
-0.31841815 0.5298514 -0.5155674 -0.31805182 0.28348807 0.1708265 0.419805 0.21583675
-0.59890443 0.33772135 -0.46857637 -0.23109938 0.39454654 0.4402549 -0.43946534 -0.39951
0.43059394 0.27374306 0.4683235 -0.33659258 -0.5260384 0.47481376 0.18845135 0.5452098
-0.5303989 -0.32103342 -0.12035647 -0.4418014 0.28068164 0.4360357 -0.022182716 -0.48985946
0.28874797 -0.51937103 0.5853128 -0.49717182 -0.4789726 -0.11815083 0.47699356 -0.044294696
0.19682539 -0.36650342 0.22128443 -0.23560137 0.26746947 0.42572346 0.27848998 -0.39269286
-0.40204176 -0.44577262 -0.2836514 0.4103779 -0.4728284 0.3799962 -0.45213166 -0.35013628
-0.10493405 -0.45883274 -0.41093752 -0.33325893 -0.3057294 -0.47102004 0.46687156 0.45198748
-0.5603795 0.28341272 -0.6395274 -0.59909844 0.1481804 -0.47211373 -0.4850007 -0.48225188
-0.21346451 0.23770714 -0.57217354 -0.5083791 0.034267176 -0.5510912 -0.5812485 -0.42039102
-0.13858113 -0.45435262 -0.49281022 -0.0009930456 -0.5156004 -0.54606247 -0.44987112 -0.5215415
0.24868695 -0.38484484 -0.3942121 0.34506822 0.11376124 0.52415884 -0.34172487 -0.3082298
-0.53934366 0.035301536 0.4734647 -0.46342072 -0.1807437 0.3159478 -0.36552814 -0.31482923
0.32587183 -0.5213405 0.15146145 -0.56954676 -0.27470735 -0.37163985 0.37376118 -0.4733163
-0.42028338 -0.08663791 0.44444185 -0.56951725 -0.5183989 0.500662 0.15175325 0.30643728
-0.57672346 -0.55455357 -0.35098884 0.47719523 0.27063638 -0.48367372 0.052488305 -0.1805686
-0.45918605 -0.5644718 -0.36354536 0.47894672 -0.30396095 -0.643254 -0.10885255 -0.30909064
0.23134157 -0.42053342 -0.46903476 -0.3960702 -0.49323452 -0.45441598 0.4722807 -0.6154815
-0.33383664 -0.40679508 -0.39520717 0.4561806 0.5174567 -0.46693826 -0.06546117 0.35527298
0.29005924 0.47687322 -0.11160869 -0.6401654 0.356465 -0.24715266 0.32058093 -0.502897
0.2182127 0.51590246 0.5217279 -0.54767597 -0.3412404 -0.50666237 -0.47972938 0.56203216
-0.24964967 -0.5783616 -0.35227624 -0.55265117 0.19321714 -0.51015896 -0.50743026 -0.49288058
0.20502192 0.3337947 -0.54856235 0.12912731 0.41907275 0.12177105 -0.30752376 -0.017129475
-0.4569384 0.3184101 -0.44924375 0.30123508 0.33524963 -0.38077298 0.47562602 0.55123866
-0.5208111 -0.31902352 0.29184633 -0.48000666 0.23982431 0.009547624 0.37966943 -0.40688494
-0.44793564 0.292812 0.19775666 -0.3756842 -0.38329905 -0.5529014 -0.399897 -0.4563401
0.4761729 -0.2594154 0.34158605 0.5293302 0.13203065 -0.36000302 0.33104083 0.25292668
0.46218598 -0.66181934 0.3699906 0.47168484 -0.60611004 0.102591656 0.47030547 -0.36365408
0.16007629 0.29608837 0.19443266 0.58803695 0.4795542 0.48075533 -0.1961209 0.4806995
-0.46595633 -0.26981467 -0.3271736 -0.4763732 0.5032773 0.30141884 0.3811997 0.40458193
00000000: 5f12 fc3d aaca f1be e0ca 1cbf b88a 7b3e
00000010: ac63 fabe 7354 d73e 1e63 e13e 0aba 043e
00000020: d364 e8be fb48 b5be 02d2 c6bd fb4d bbbd
00000030: ee42 06bf 6915 f1be 4b3e 17bf cc8a bf3e
00000040: b407 a3be 57a4 073f 3afc 03bf b0d7 a2be
00000050: 5925 913e 24ed 2e3e aef0 d63e 4f04 5d3e
00000060: cd51 19bf d0e9 ac3e 3ee9 efbe 51a5 6cbe
00000070: 0102 ca3e 1769 e13e 9a01 e1be 938c ccbe
00000080: cf76 dc3e 0d28 8c3e 19c8 ef3e dd55 acbe
00000090: 74aa 06bf ca1a f33e 64f9 403e df92 0b3f
000000a0: 39c8 07bf 7e5e a4be 747d f6bd cb33 e2be
000000b0: 81b5 8f3e 1240 df3e 87b8 b5bc dcce fabe
000000c0: c6d6 933e 80f5 04bf 0fd7 153f 4e8d febe
000000d0: e63b f5be 10f9 f1bd 8038 f43e 5b6e 35bd
000000e0: 988c 493e 56a6 bbbe 6398 623e 7c41 71be
000000f0: c2f1 883e 6df8 d93e 3d96 8e3e 0a0f c9be
00000100: 6bd8 cdbe 4f3c e4be c23a 91be 0d1d d23e
00000110: 9016 f2be dd8e c23e cd7d e7be 1045 b3be
00000120: aae7 d6bd 20ec eabe 6766 d2be eaa0 aabe
00000130: 9088 9cbe 8a29 f1be ca09 ef3e e76a e73e
00000140: 0875 0fbf 791b 913e 11b8 23bf 845e 19bf
00000150: 9abc 173e e4b8 f1be 0352 f8be b8e9 f6be
00000160: 7196 5abe 8069 733e f779 12bf 2225 02bf
00000170: bd5b 0c3d 5014 0dbf b4cc 14bf 7e3d d7be
00000180: 36e8 0dbe e8a0 e8be 9f51 fcbe 1529 82ba
00000190: 63fe 03bf c0ca 0bbf 8255 e6be be83 05bf
000001a0: cba7 7e3e 620a c5be 2bd6 c9be c8ac b03e
000001b0: a7fb e83d 462f 063f 90f6 aebe 4cd0 9dbe
000001c0: 6d12 0abf 5898 103d f769 f23e 7b45 edbe
000001d0: e014 39be e9c3 a13e 8126 bbbe 4c31 a1be
000001e0: acd8 a63e 9276 05bf b618 1b3e d1cd 11bf
000001f0: 71a6 8cbe 9447 bebe a05d bf3e 8456 f2be
00000200: 622f d7be 376f b1bd e28d e33e e2cb 11bf
00000210: cab5 04bf 632b 003f 3465 1b3e 59e5 9c3e
00000220: 26a4 13bf 39f7 0dbf cfb4 b3be ef52 f43e
00000230: da90 8a3e 15a4 f7be fafd 563d fae6 38be
00000240: 6f1a ebbe 3981 10bf 9e22 babe 8138 f53e
00000250: c5a0 9bbe 4bac 24bf 16ee debd 2141 9ebe
00000260: cee4 6c3e 2850 d7be 5325 f0be b7c9 cabe
00000270: 3c89 fcbe 36a9 e8be c7ce f13e 3290 1dbf
00000280: a3ec aabe 7247 d0be 9858 cabe 8190 e93e
00000290: 0b78 043f 8812 efbe 8210 86bd 57e6 b53e
000002a0: a582 943e ba28 f43e 1993 e4bd e1e1 23bf
000002b0: 9582 b63e 9615 7dbe 2f23 a43e dcbd 00bf
000002c0: 2673 5f3e 2f12 043f f68f 053f 7e34 0cbf
000002d0: 10b7 aebe a0b4 01bf 179f f5be 57e1 0f3f
000002e0: 2aa4 7fbe 810f 14bf 8d5d b4be 8c7a 0dbf
000002f0: b7da 453e c799 02bf f3e6 01bf d85a fcbe
00000300: 44f1 513e 24e7 aa3e 956e 0cbf f339 043e
00000310: b490 d63e 1a63 f93d c173 9dbe 1d53 8cbc
00000320: d4f3 e9be a606 a33e 4703 e6be 7c3b 9a3e
00000330: d7a5 ab3e adf4 c2be 4185 f33e fa1d 0d3f
00000340: e053 05bf 0d57 a3be e26c 953e 6fc3 f5be
00000350: 8194 753e a36d 1c3c 0864 c23e 3953 d0be
00000360: d257 e5be 74eb 953e b980 4a3e ae59 c0be
00000370: c63f c4be f28a 0dbf 4dbf ccbe 69a5 e9be
00000380: efcc f33e 18d2 84be 5ee4 ae3e 2f82 073f
00000390: 0b33 073e 5152 b8be 2f7e a93e 9b7f 813e
000003a0: a4a3 ec3e fe6c 29bf 686f bd3e ad80 f13e
000003b0: 072a 1bbf 931b d23d e1cb f03e de30 babe
000003c0: 0aeb 233e e598 973e 5b19 473e 9789 163f
000003d0: 2188 f53e 9025 f63e ebd3 48be 3f1e f63e
000003e0: d491 eebe 2625 8abe 4c83 a7be 30e7 f3be
000003f0: c8d6 003f 9253 9a3e 9b2c c33e 5d25 cf3e

fc2.weight f4 [256, 256]
-0.046687722 -0.0072388127 0.009126537 0.009471282 0.03213954 -0.031572007 -0.025290063 0.044451226
-0.016774021 -0.04989445 0.03637449 0.0354222 -0.027786259 -0.018849963 -0.0461175 -0.058691874
0.023503095 -0.032894637 0.042589404 -0.050044574 -0.014770497 -0.0046524857 0.025262123 0.056364097
0.04232528 0.021154864 -0.028687112 -0.04463423 -0.062158685 -0.0035328185 0.060617514 -0.011871405
-0.009345934 -0.052008536 0.01242895 0.03272724 -0.070072755 -0.050012846 0.040167164 0.008191837
-0.0038966313 0.0111723915 -0.015928885 -0.04368531 -0.064907864 0.034377918 -0.013875046 -0.030036893
-0.02213645 -0.03408894 -0.024520537 -0.0536509 0.046771474 0.025521405 -0.038008276 -0.027611671
0.022045294 -0.023144089 0.010221411 0.013434017 -0.045666505 0.009032827 -0.0026502323 0.054586492
-0.022613749 -0.020808194 0.05385004 -0.057280257 0.0045155287 0.053261325 -0.028022997 0.059917636
0.05545879 0.05814623 -0.013094017 0.05653958 -0.035380527 -0.021394074 0.01680495 0.0066067814
0.034454726 0.052774254 -0.039124317 0.033170417 0.0140908165 0.025990548 0.022777557 -0.02337937
-0.049397253 0.04406715 -0.035639726 0.039957948 -0.06763274 -0.010812648 -0.0046819625 0.0013389566
-0.0019941202 0.019694142 -0.006959036 0.0061995755 0.06184902 -0.04773297 -0.0034122989 -0.02385769
0.047851805 0.053502493 -0.0017043278 -0.02767024 -0.038616635 0.03819351 -0.012675055 0.058863096
0.028422436 0.049377166 0.043501265 -0.04061514 0.012383703 -0.032808755 0.031359576 -0.005619362
-0.001765246 -0.04322555 -0.06286459 0.018680913 0.0076756044 0.005428925 0.035547215 -0.0260984
0.022186302 -0.040971007 0.0064729243 -0.019781426 0.036079496 0.048146594 0.054282732 -0.0031373866
0.036855817 -0.062446147 -0.03666214 0.0045189946 -0.006541499 -0.049067058 -0.03455651 -0.037168987
-0.07040644 0.005960673 0.03425292 0.019150889 -0.029695809 -0.06537295 -0.050423563 -0.005337931
0.03702424 -0.03289751 -0.041059066 -0.033341028 -0.0123100765 -0.066730686 -0.06172286 0.061524414
-0.029807255 -0.011272728 -0.02297715 -0.061076846 -0.017438848 0.019132294 -0.03297041 -0.008666371
-0.007107376 -0.06879665 0.035925902 0.050485797 0.036182474 -0.01463797 0.02576856 -0.058557652
-0.022330811 -0.018906962 -0.028708596 0.020177962 -0.028478615 -0.013156046 -0.018047087 -0.065426
-0.016678864 -0.04725326 0.029759614 0.033403933 0.051946986 -0.020987675 0.0031782612 0.012243167
0.056209236 0.05085836 -0.040183578 -0.059323154 -0.062293254 -0.0370199 0.05254916 0.013305197
0.053690597 0.03989632 0.00090610236 -0.04566588 0.054539293 0.044803984 0.020609327 -0.04074168
0.04923621 0.005688496 0.034769714 0.021610195 0.026304942 -0.06109486 -0.04112877 0.03748572
-0.013020992 -0.060801033 0.0504395 -0.0013515949 0.050417744 -0.04885105 0.021518365 -0.023541793
-0.032919426 -0.02008271 -0.029088303 0.027517663 -0.018611744 0.047388606 0.0066453703 -0.016280256
-0.042581804 -0.057229564 -0.024825064 -0.064623915 -0.011579417 0.0010215193 -0.010775181 -0.030701056
0.037091073 0.028814442 -0.02200312 -0.031164255 0.032905936 0.0478106 -0.05722741 -0.02017685
-0.0058001354 -0.022628807 0.05335682 -0.009231962 0.046349738 -0.0067954264 -0.0136613045 -0.043523975
00000000: a03b 3fbd 9033 edbb 7887 153c 702d 1b3c
00000010: c0a4 033d a651 01bd 1b2d cfbc 7d12 363d
00000020: ac69 89bc 1f5e 4cbd 6bfd 143d de16 113d
00000030: 02a0 e3bc 3d6b 9abc b4e5 3cbd e466 70bd
00000040: 9089 c03c 87bc 06bd 3a72 2e3d 8afb 4cbd
00000050: f4ff 71bc e173 98bb 83f2 ce3c 0ade 663d
00000060: 465d 2d3d f74c ad3c 3c01 ebbc 62d2 36bd
00000070: 1b9a 7ebd dc86 67bb 124a 783d 4880 42bc
00000080: b01f 19bc e706 55bd cba2 4b3c 000d 063d
00000090: 4e82 8fbd 45da 4cbd 5386 243d 0e37 063c
000000a0: a05e 7fbb 680c 373c 4b7d 82bc 5eef 32bd
000000b0: 6aee 84bd dccf 0c3d 2954 63bc ee0f f6bc
000000c0: 8057 b5bc d8a0 0bbd 4bdf c8bc 0cc1 5bbd
000000d0: 7293 3f3d 4412 d13c 91ae 1bbd df31 e2bc
000000e0: 5598 b43c ac98 bdbc b477 273c 5a1a 5c3c
000000f0: cd0c 3bbd 6cfe 133c 85af 2dbb 1696 5f3d
00000100: 7840 b9bc f275 aabc dc91 5c3d b49e 6abd
00000110: 00f7 933b 8c28 5a3d 7c90 e5bc 326c 753d
00000120: c228 633d be2a 6e3d 4a88 56bc 0c96 673d
00000130: 2ceb 10bd a042 afbc 89aa 893c b37d d83b
00000140: 6620 0d3d d129 583d d240 20bd b4dd 073d
00000150: 2bdd 663c 21ea d43c 0098 ba3c 1886 bfbc
00000160: c654 4abd c27f 343d f6fa 11bd f2aa 233d
00000170: 0983 8abd 8827 31bc 266b 99bb ee7f af3a
00000180: c9af 02bb 9c55 a13c a008 e4bb cf25 cb3b
00000190: 6655 7d3d a683 43bd e0a0 5fbb 3471 c3bc
000001a0: 4100 443d 6e25 5b3d c063 dfba b3ac e2bc
000001b0: 7a2c 1ebd cc70 1c3d 09ab 4fbc 6e1a 713d
000001c0: 2bd6 e83c b63f 4a3d 622e 323d 105c 26bd
000001d0: 04e5 4a3c 7962 06bd e672 003d a022 b8bb
000001e0: d45f e7ba 460d 31bd 26bf 80bd b708 993c
000001f0: a383 fb3b 20e5 b13b f599 113d 50cc d5bc
00000200: 0cc0 b53c 37d1 27bd d31a d43b a80c a2bc
00000210: 18c8 133d 5d35 453d 9257 5e3d 9d9c 4dbb
00000220: 20f6 163d 88c7 7fbd 0a2b 16bd 1314 943b
00000230: 125a d6bb 8afa 48bd 218b 0dbd 823e 18bd
00000240: 4031 90bd c051 c33b ca4c 0c3d 53e2 9c3c
00000250: a044 f3bc 41e2 85bd f088 4ebd d0e9 aebb
00000260: bba6 173d 8abf 06bd 8d2d 28bd 9a90 08bd
00000270: 34b0 49bc 19aa 88bd 1cd1 7cbd 0601 7c3d
00000280: 582e f4bc 40b1 38bc 933a bcbc b72b 7abd
00000290: eadb 8ebc 54bb 9c3c fb0b 07bd 65fd 0dbc
000002a0: fee4 e8bb 42e5 8cbd 0a27 133d 32ca 4e3d
000002b0: 1334 143d 19d4 6fbc 9618 d33c 26da 6fbd
000002c0: 1bef b6bc c6e2 9abc 4a2e ebbc 414c a53c
000002d0: fc4b e9bc 758c 57bc 7cd7 93bc 11fe 85bd
000002e0: 1da2 88bc a28c 41bd 6fca f33c 90d2 083d
000002f0: 5dc6 543d 58ee abbc 604a 503b 9097 483c
00000300: a83b 663d db50 503d 8997 24bd d6fc 72bd
00000310: 3627 7fbd 2ea2 17bd ca3d 573d 0afe 593c
00000320: acea 5b3d 536a 233d 8087 6d3a 250c 3bbd
00000330: 9864 5f3d 6284 373d e4d4 a83c bfe0 26bd
00000340: e8ab 493d 9066 ba3b b06a 0e3d dd07 b13c
00000350: 767d d73c 9b3e 7abd a476 28bd a08a 193d
00000360: 0056 55bc 810a 79bd a699 4e3d 0028 b1ba
00000370: d682 4e3d 0a18 48bd 4847 b03c b8da c0bc
00000380: 85d6 06bd 7f84 a4bc 984a eebc b96c e13c
00000390: a877 98bc 8e1a 423d 68c1 d93b 2c5e 85bc
000003a0: 426a 2ebd 8c69 6abd ef5d cbbc 8b59 84bd
000003b0: 98b7 3dbc 80e4 853a 638a 30bc c880 fbbc
000003c0: cfec 173d 440c ec3c e33f b4bc 2e4c ffbc
000003d0: 60c8 063d 0cd5 433d 4a67 6abd ec49 a5bc
000003e0: 100f bebb 0c60 b9bc ae8c 5a3d a841 17bc
000003f0: 39d9 3d3d 2bac debb aad3 5fbc 3246 32bd

fc2.bias f4 [256]
-0.05406697 -0.030493401 0.08824091 0.044153657 0.031424932 -0.07722696 0.037801653 -0.11078167
-0.06080766 -0.039602403 -0.067191474 0.031048192 0.15993841 0.121019065 0.059900865 0.16169235
-0.050890088 -0.037768684 -0.054687012 -0.024407461 -0.0801896 -0.046939373 0.15645255 0.013139425
-0.0525544 0.13620417 0.00072680356 0.03636131 0.1867163 0.006275762 0.08671924 0.01289258
-0.059582196 -0.013538772 -0.035637967 -0.031887308 0.13963939 0.09035742 0.06415089 -0.05491086
0.12352208 0.15198416 0.15731354 0.033735655 -0.02868615 -0.038704988 -0.020992236 0.08177197
0.027099485 -0.027737478 -0.048261467 -0.016588364 0.12583819 0.0034068695 0.024937509 0.008202798
0.011021388 0.16413945 -0.056469683 0.11700922 0.144038 -0.049876772 -0.0181234 -0.020030499
-0.03444289 0.19072752 -0.065383986 -0.036047302 0.117207274 0.12363173 0.1483003 0.032128684
0.13899061 0.14543638 -0.011436944 -0.06987726 0.049585506 -0.057721913 0.04662954 0.039673083
-0.017968267 0.0259221 0.03394681 -0.057217132 -0.06640217 0.08943587 -0.0602914 0.007886917
0.0024124165 -0.02302927 0.028735748 0.023170488 -0.03279006 0.17771697 -0.013272858 -0.011831788
-0.002602367 -0.028287068 -0.065904394 0.19811058 -0.041650567 -0.051660635 0.10944308 -0.008934845
0.11151982 -0.052527674 0.0683417 0.023368444 0.08608813 -0.01803563 -0.005957784 0.12759921
0.051740468 0.049850028 0.18768379 0.063304305 -0.033717472 0.06397106 -0.032778513 0.17008339
0.04178966 -0.01815604 0.11831416 0.089582816 -0.06789418 0.04449339 -0.0025363488 0.16504908
0.09161546 0.003912673 0.16904932 -0.06155786 -0.019549198 0.019336129 -0.019857906 0.048872788
0.04493586 0.17633988 -0.03697624 -0.06519986 -0.020515852 0.17233375 0.065325476 -0.02106135
0.036090124 -0.06511221 0.014762069 0.09736499 0.16146989 0.120818295 -0.04352687 -0.07188749
0.068092555 0.01387238 0.01015158 0.039977238 0.016593093 0.20046549 0.06397459 -0.015256795
0.13236149 -0.06388051 -0.049292665 0.058870133 0.011512048 -0.0424622 0.030762995 0.052211035
-0.025343651 0.09812204 0.057737865 0.18433532 0.17844605 0.017192205 0.07874786 -0.06552459
-0.06610758 0.17418018 0.16854146 -0.020744875 0.14308104 -0.0812886 0.0070639844 0.04594181
-0.014304139 -0.04180053 0.01001317 0.11989406 0.00786334 0.13989481 -0.022687681 0.0528936
-0.041132584 0.14139368 0.0066106976 -0.042039536 0.011328486 0.0029189207 -0.030190168 0.16037457
0.18528907 0.02123001 -0.06952426 -0.026168833 0.021421425 0.070394345 0.013711387 0.093403496
-0.048144683 -0.04263621 0.15340564 0.14881688 0.17712745 0.07526713 -0.03199977 -0.037161596
0.048552517 -0.010314521 -0.09615183 -0.052633718 0.02387311 -0.054728627 -0.07001721 -0.058965396
0.107595444 0.013085196 -0.06353719 -0.049645755 0.11953692 -0.022901334 0.04770966 -0.026669893
0.026428921 0.07728699 0.13032359 0.038917404 0.08316206 0.17696573 0.048074413 0.14839834
0.14525373 -0.037209164 0.013881568 0.1351028 -0.008462172 -0.054707542 0.05358691 0.04624057
-0.018488798 -0.067362376 0.1974829 0.14961384 0.2001442 -0.01071534 0.021304516 0.037632328
00000000: 5475 5dbd 4ccd f9bc a6b7 b43d 77da 343d
00000010: 6eb7 003d 2b29 9ebd e8d5 1a3d 80e1 e2bd
00000020: 7411 79bd 2136 22bd af9b 89bd c758 fe3c
00000030: e5c6 233e d8d8 f73d 9c5a 753d ae92 253e
00000040: 2072 50bd 56b3 1abd 7dff 5fbd 28f2 c7bc
00000050: 723a a4bd 8043 40bd 1935 203e be46 573c
00000060: 4843 57bd 1b79 0b3e f686 3e3a 99ef 143d
00000070: 8f32 3f3e e8a4 cd3b db99 b13d 663b 533c
00000080: 760c 74bd bad1 5dbc 1ef9 11bd 449c 02bd
00000090: a1fd 0e3e 500d b93d 8b61 833d 36ea 60bd
000000a0: 25f9 fc3d bca1 1b3e cd16 213e 662e 0a3d
000000b0: 38ff eabc 1f89 1ebd e9f7 abbc 1078 a73d
000000c0: bdff dd3c b539 e3bc d1ad 45bd 52e4 87bc
000000d0: badb 003e c945 5f3b bf49 cc3c 0765 063c
000000e0: 0d93 343c 2c14 283e c14c 67bd 88a2 ef3d
000000f0: b37e 133e 964b 4cbd 8677 94bc 0017 a4bc
00000100: fd13 0dbd 134e 433e 0ae8 85bd 56a6 13bd
00000110: 5e0a f03d a232 fd3d 09dc 173e 5e99 033d
00000120: 8e53 0e3e 46ed 143e 0562 3bbc cf1b 8fbd
00000130: 2c1a 4b3d d06d 6cbd 9efe 3e3d 3e80 223d
00000140: 3032 93bc 955a d43c cf0b 0b3d 835c 6abd
00000150: dcfd 87bd 272a b73d 1df4 76bd 2138 013c
00000160: a219 1e3b e1a7 bcbc 3b67 eb3c 09d0 bd3c
00000170: df4e 06bd 70fb 353e 6776 59bc 1eda 41bc
00000180: 798c 2abb 48ba e7bc e2f8 86bd 80dd 4a3e
00000190: c999 2abd 1a9a 53bd b223 e03d 7563 12bc
000001a0: 8164 e43d 4227 57bd bcf6 8b3d 2e6f bf3c
000001b0: f94e b03d 75bf 93bc 8439 c3bb 5ea9 023e
000001c0: d0ed 533d 8b2f 4c3d 2e30 403e b0a5 813d
000001d0: 551b 0abd 4203 833d c342 06bd 572a 2e3e
000001e0: a22b 2b3d fabb 94bc b24e f23d 3277 b73d
000001f0: 1b0c 8bbd b33e 363d df38 26bb a002 293e
00000200: e3a0 bb3d e135 803b 441b 2d3e 1824 7cbd
00000210: a425 a0bc cd66 9e3c 0cad a2bc d52e 483d
00000220: aa0e 383d 7192 343e 6674 17bd 8187 85bd
00000230: dc10 a8bc 4278 303e 5dc9 853d da88 acbc
00000240: 3dd3 133d 8d59 85bd 9bdc 713c 4c67 c73d
00000250: 5d58 253e 956f f73d 3b49 32bd c039 93bd
00000260: 1c74 8b3d fb48 633c d052 263c 2cbf 233d
00000270: 3dee 873c d346 4d3e 1c05 833d a3f7 79bc
00000280: c589 073e c9d3 82bd 1be7 49bd cf21 713d
00000290: 079d 3c3c d8ec 2dbd ad02 fc3c 3ddb 553d
000002a0: 7d9d cfbc 35f4 c83d 8a7e 6c3d 66c2 3c3e
000002b0: 90ba 363e abd6 8c3c 8f46 a13d c231 86bd
000002c0: 6963 87bd 4a5c 323e 2296 2c3e 28f1 a9bc
000002d0: d683 123e a37a a6bd ff78 e73b 7b2d 3c3d
000002e0: e85b 6abc 0837 2bbd 470e 243c 048b f53d
000002f0: 3dd5 003c 9640 0f3e 84db b9bc f6a6 583d
00000300: a47a 28bd 81c9 103e 8d9e d83b a631 2cbd
00000310: 1d9b 393c 5d4b 3f3b 5f51 f7bc 3b39 243e
00000320: 6bbc 3d3e 8fea ad3c bc62 8ebd 0560 d6bc
00000330: fc7b af3c e92a 903d baa5 603c 554a bf3d
00000340: 5c33 45bd 4ea3 2ebd 5e16 1d3e 7463 183e
00000350: e660 353e a725 9a3d 3112 03bd c236 18bd
00000360: 01df 463d 3dfe 28bc 40eb c4bd 7496 57bd
00000370: 8a91 c33c 202b 60bd 2f65 8fbd b385 71bd
00000380: 005b dc3d 4a63 563c c91f 82bd 5959 4bbd
00000390: c6cf f43d 949b bbbc 346b 433d d27a dabc
000003a0: 7781 d83c a448 9e3d 8c73 053e db67 1f3d
000003b0: df50 aa3d 8136 353e ade9 443d bcf5 173e
000003c0: 65bd 143e a368 18bd 846f 633c 6358 0a3e
000003d0: eca4 0abc 0415 60bd f37d 5b3d c066 3d3d
000003e0: d275 97bc 49f5 89bd f538 4a3e 5f34 193e
000003f0: 9af2 4c3e 658f 2fbc cf86 ae3c 5b24 1a3d

output.weight f4 [2, 256]
0.011259255 -0.0217769 0.3114358 0.0013665415 -0.051704023 -0.0057339 0.036635846 0.26371226
-0.018862717 -0.011286076 -0.056045886 -0.050992902 0.39831215 0.19626148 0.067716055 0.27674282
0.017209344 -0.023060387 -0.046599016 -0.005742107 0.0415024 0.015226556 0.20543179 -0.046175294
0.046491608 0.20095211 -0.046202123 0.026840582 0.42871496 0.011545261 0.21956396 -0.036648106
0.030828144 -0.023824148 0.033888943 -0.029579869 0.19927947 0.2353387 0.21130131 -0.04251484
0.43136647 0.33819118 -0.23061956 -0.035336114 -0.04348263 -0.0077904756 -0.011442361 0.16784409
0.035722625 -0.016934019 -0.04700634 0.04982832 0.22445227 -0.03246324 -0.024996849 0.03115387
-0.040971857 -0.07776221 -0.021304836 0.19330314 -0.21507709 -0.059354283 -0.005014252 0.010743063
0.017560434 -0.15345144 -0.14527754 0.012988113 -0.15047817 -0.19493909 0.15627281 -0.042662263
0.01355839 0.2982346 0.009268272 -0.03905726 -0.041828763 0.034443755 -0.04319962 0.0013413522
0.007420698 1.1061262 -0.043921053 -0.018301107 0.06265271 0.07272182 -0.014380141 -0.04106862
-0.024790892 -0.040335573 -0.024245989 -0.0158146 -0.013631923 0.39238775 -0.049669147 -0.021113671
-0.025730979 0.048116673 -0.013280237 0.42048728 0.008192969 0.0012088323 0.12190626 -0.031242812
0.07301965 -0.0099004395 -0.074935436 0.014667034 0.029315125 0.046468925 0.04739228 0.3488036
0.013333351 -0.019764595 -0.079168856 0.2518056 0.03158678 0.21091808 0.027595917 0.3683589
-0.037772343 0.002864678 0.18014243 0.22809283 -0.021055697 0.16341823 -0.04120892 0.2941949
0.25262666 -0.06107436 0.41917717 -0.025895486 -0.042625673 -0.0069369613 -0.028752744 0.30649862
0.031886056 -0.14508636 0.024804093 -0.039907448 -0.029817395 0.2704012 0.31730178 0.02446624
-0.036461085 -0.020405082 -0.51607054 0.37844944 0.33518624 0.21278095 -0.01466945 0.024068527
0.32800582 -0.018617902 0.028868288 0.73244536 -0.04653468 0.39868826 0.2952693 0.018227555
-0.17804098 -0.050132293 -0.009387732 0.26106218 0.006280176 -0.05401748 0.011360734 0.17188868
0.019073673 0.23579699 0.014824651 0.40951252 0.20785308 -0.078394935 0.028285705 0.028946055
0.014921619 0.39531225 0.22240616 -0.0016994104 0.036236 0.008365488 -0.044314567 -0.00813382
-0.029772766 0.03863494 -0.028887998 -0.10661055 0.027720021 -0.18054025 -0.03202671 0.017239533
-0.015687244 0.36156973 -0.040967353 0.018156558 -0.030626204 0.0071438346 -0.041429717 0.1410856
-0.011907135 -0.022421107 -0.050218135 -0.022656644 -0.030519312 -0.044039525 -0.01970898 0.19756928
-0.0011792006 0.045763172 0.18025324 0.012198925 0.037774075 0.19863904 0.026343504 0.044133507
0.03004306 -0.018854067 -0.060180873 -0.019596107 0.02252952 -0.022960052 -0.028980026 -0.03999538
-0.21551739 0.008731094 -0.05498841 -0.045685485 0.03107612 -0.04211508 -0.0037119933 -0.009452708
-0.0047140527 0.34019038 0.30387536 0.037726343 0.36545002 -0.048258748 -0.03824174 0.28440613
-0.098609544 -0.02252365 -0.043471705 0.3092446 -0.03244559 0.014282055 0.27288717 -0.030696528
-0.026067687 -0.02068229 -0.067950875 0.28408873 -0.12308578 -0.015869664 0.03363341 0.0045022797
00000000: bd78 383c 7865 b2bc 8374 9f3e 861d b33a
00000010: 99c7 53bd 70e3 bbbb 780f 163d 4b05 873e
00000020: fc85 9abc 3ce9 38bc 5f90 65bd efdd 50bd
00000030: 92ef cb3e c5f8 483e b7ae 8a3d 3cb1 8d3e
00000040: 9cfa 8c3c 23e9 bcbc 9cde 3ebd 4928 bcbb
00000050: 6cfe 293d ce78 793c b65c 523e 4e22 3dbd
00000060: fc6d 3e3d 64c6 4d3e 703e 3dbd c8e0 db3c
00000070: 8780 db3e 5628 3d3c 60d5 603e 531c 16bd
00000080: 4e8b fc3c dc2a c3bc 22cf 0a3d 7b51 f2bc
00000090: eb0f 4c3e a1fc 703e 5f5f 583e 0a24 2ebd
000000a0: 11dc dc3e 6527 ad3e 8927 6cbe 9abc 10bd
000000b0: d81a 32bd 3f47 ffbb be78 3bbc 52df 2b3e
000000c0: e351 123d 36b9 8abc b889 40bd c818 4c3d
000000d0: d1d6 653e 2df8 04bd 31c6 ccbc 6736 ff3c
000000e0: 1bd2 27bd cb41 9fbd 7b87 aebc 42f1 453e
000000f0: 2b3d 5cbe 7a1d 73bd 984e a4bb ac03 303c
00000100: e6da 8f3c 6022 1dbe a3c3 14be 18cc 543c
00000110: f316 1abe 1d9e 47be fb05 203e a0be 2ebd
00000120: 0224 5e3c 35b2 983e f3d9 173c 81fa 1fbd
00000130: a354 2bbd e514 0d3d 16f2 30bd 50d0 af3a
00000140: 5429 f33b 8b95 8d3f 90e6 33bd 34ec 95bc
00000150: 1050 803d 2def 943d af9a 6bbc 9237 28bd
00000160: 4516 cbbc ea36 25bd 869f c6bc 9f8d 81bc
00000170: 6e58 5fbc 0ce7 c83e e071 4bbd 94f6 acbc
00000180: c6c9 d2bc fd15 453d 5a95 59bc 1c4a d73e
00000190: cd3b 063c ae71 9e3a fda9 f93d edf0 ffbc
000001a0: 548b 953d 7435 22bc c077 99bd 004e 703c
000001b0: 4626 f03c 3356 3e3d 681e 423d 6396 b23e
000001c0: 2174 5a3c 5ce9 a1bc 4823 a2bd aaec 803e
000001d0: 2461 013d e9fa 573e d510 e23c 8a99 bc3e
000001e0: 2cb7 1abd 52bd 3b3b 4277 383e 2b91 693e
000001f0: ff7c acbc 1c57 273e afca 28bd b7a0 963e
00000200: 4858 813e 1c29 7abd 649e d63e c522 d4bc
00000210: 4298 2ebd 734f e3bb e08a ebbc 63ed 9c3e
00000220: f49a 023d 8591 14be f431 cb3c fe75 23bd
00000230: 9c43 f4bc 0772 8a3e 6175 a23e 6d6d c83c
00000240: 3858 15bd 8f28 a7bc 331d 04bf 20c4 c13e
00000250: 889d ab3e 40e3 593e 2258 70bc 5c2b c53c
00000260: 61f0 a73e 9284 98bc 307d ec3c 8a81 3b3f
00000270: 269b 3ebd de20 cc3e 8a2d 973e f451 953c
00000280: 6050 36be 8557 4dbd 00cf 19bc f1a9 853e
00000290: efc9 cd3b 6f41 5dbd 5f22 3a3c 9603 303e
000002a0: 6440 9c3c c474 713e 18e3 723c a0ab d13e
000002b0: 70d7 543e 868d a0bd 6cb7 e73c 4720 ed3c
000002c0: ce79 743c 5e66 ca3e 71be 633e c0be deba
000002d0: 336c 143d 660f 093c 3183 35bd b743 05bc
000002e0: 04e6 f3bc ac3f 1e3d 86a6 ecbc a256 dabd
000002f0: 1915 e33c 8bdf 38be 712e 03bd ec39 8d3c
00000300: 8982 80bc ab1f b93e 62cd 27bd 10bd 943c
00000310: cee3 fabc d416 ea3b 35b2 29bd be78 103e
00000320: 2516 43bc 78ac b7bc 88b1 4dbd 6d9a b9bc
00000330: a303 fabc ca62 34bd ba74 a1bc 9a4f 4a3e
00000340: 688f 9aba 2a72 3b3d 4e94 383e 00de 473c
00000350: fdb8 1a3d 0868 4b3e 55ce d73c 56c5 343d
00000360: dd1c f63c d873 9abc 3880 76bd 0488 a0bc
00000370: d48f b83c b816 bcbc 8567 edbc 32d2 23bd
00000380: 97b0 5cbe dd0c 0f3c 873b 61bd b420 3bbd
00000390: 5993 fe3c dd80 2cbd ea44 73bb 88df 1abc
000003a0: 5778 9abb 6f2d ae3e 8d95 9b3e f086 1a3d
000003b0: 441c bb3e f7aa 45bd 5fa3 1cbd ae9d 913e
000003c0: cdf3 c9bd 8583 b8bc 630f 32bd 4f55 9e3e
000003d0: abe5 04bd 48ff 693c deb7 8b3e 4977 fbbc
000003e0: e78b d5bc e86d a9bc d429 8bbd 1474 913e
000003f0: 6614 fcbd 1901 82bc 30c3 093d dc87 933b

output.bias f4 [2]
0.1492777 0.058220323
00000000: 41dc 183e 6f78 6e3d
